ConvNetModel.pth (torch, 126945 bytes, 22 tensors)

layer1.0.weight f4 [16, 3, 3, 3]
0	0xbe794d7a	-0.24345961
1	0xbd9caaca	-0.07649763
2	0xbde5ad77	-0.112147264
3	0xbda66695	-0.08125035
4	0xbe2e663f	-0.17031191
5	0x3ddc4496	0.10755269
6	0xbe03a73c	-0.12856764
7	0x3d4ee93c	0.0505154
8	0x3e1589dd	0.14603372
9	0xbdd9a287	-0.10626703
10	0x3daf996f	0.08574187
11	0x3cc19dab	0.023634752
12	0x3db99d6f	0.09063231
13	0x3e04b0f3	0.12958126
14	0xbd3ddb89	-0.046351943
15	0x3ddadad6	0.10686271
16	0xbce17425	-0.027521202
17	0x3e0dac8d	0.13835354
18	0xbe4863cd	-0.19569321
19	0x3ba37860	0.004988715
20	0xbcce8791	-0.025211127
21	0xbe0c72ad	-0.1371562
22	0xbe0cc073	-0.13745289
23	0x3d17368e	0.03691726
24	0x3e3ee1b5	0.18640788
25	0x3de8c888	0.11366373
26	0x3cad55d6	0.021159094
27	0x3be71bda	0.0070528807
28	0x3ddf1dde	0.108943686
29	0xbe148bd6	-0.14506468
30	0x3d958140	0.07300043
31	0xbd99877a	-0.07496543
32	0x3dc15c8d	0.09441481
33	0xbd192300	-0.037386894
34	0x3c105ce2	0.0088112075
35	0x3d4e7640	0.05040574
36	0x3d8eeddc	0.06978962
37	0xbe05d147	-0.13068114
38	0x3d823e33	0.0635952
39	0xbe7b482c	-0.2453925
40	0xbe1f6657	-0.15566383
41	0xbea911cf	-0.330214
42	0xbd15558e	-0.036458544
43	0xbd6c085c	-0.05762516
44	0xbe59bb4a	-0.21262851
45	0x3dbf9b4a	0.09355791
46	0xbd0d6201	-0.034517292
47	0xbe3920b0	-0.18078876
48	0x3e0d9ae6	0.1382862
49	0x3dbd36b3	0.09238949
50	0x3d77a5db	0.060460906
51	0x3e2765c5	0.16347416
52	0x3d09e1f0	0.033662736
53	0x3d605cce	0.054776005
54	0x3e4d1ad5	0.20029767
55	0x3bb61542	0.0055567333
56	0xbdbfe007	-0.09368902
57	0xbd4eb356	-0.050463997
58	0x3d0c3155	0.034226734
59	0x3d346362	0.04404009
60	0x3d0e4082	0.03472949
61	0x3e2e32ff	0.17011641
62	0x3dfa50be	0.122224316
63	0xbe5d5148	-0.21613038
64	0xbdf7366c	-0.12070927
65	0xbda3c50a	-0.079965666
66	0x3d3c5462	0.04597891
67	0xbddde049	-0.108337946
68	0xbdd5c1f4	-0.10437384
69	0xbddef64e	-0.10886823
70	0xbdba8a8c	-0.09108457
71	0xbda148f3	-0.07875242
72	0xbe2eae76	-0.17058739
73	0x3e413d41	0.18871023
74	0x3e19d3dd	0.15022226
75	0xbd9b35be	-0.0757861
76	0xbda9517c	-0.08267495
77	0x3d86b12b	0.06576761
78	0x3dd46e63	0.10372617
79	0xbdd781e9	-0.10522825
80	0xbcb6e2b7	-0.022324903
81	0x3d5decce	0.054180913
82	0xbddb70af	-0.10714852
83	0x3c0a124d	0.008427215
84	0xbe5c8f75	-0.215391
85	0x3e397493	0.18110876
86	0x3e0f00c0	0.1396513
87	0xbe9071a5	-0.28211704
88	0xbe0ca7cb	-0.13735883
89	0x3d9d046b	0.07666858
90	0x3bb4b800	0.0055150986
91	0x3dbd3a97	0.09239691
92	0xbdc92cc9	-0.09822995
93	0xbe1ca2a4	-0.15296417
94	0x3de15a34	0.11003533
95	0xbdafdf54	-0.08587518
96	0xbe02d0ac	-0.12774915
97	0x3d8cd066	0.06875686
98	0x3e0275f1	0.12740304
99	0xbc2172d3	-0.009854036
100	0x3d93f5ab	0.07224592
101	0x3deeeaf4	0.116659075
102	0xbdad7ec1	-0.08471442
103	0xbd4d4510	-0.05011469
104	0x3e3b1f13	0.18273573
105	0x3dbe4c43	0.092918895
106	0x3d6da566	0.058019064
107	0xbd9d1569	-0.07670099
108	0xbe3e52af	-0.18586229
109	0xbe380bf2	-0.17973307
110	0x3d5813ba	0.052753188
111	0xbdc31d4d	-0.09527073
112	0xbd1bb5a7	-0.038015034
113	0x3c9ec0fe	0.019379135
114	0x3e22393f	0.1584215
115	0x3e4805f4	0.19533521
116	0x3cc6a5ed	0.024249041
117	0xbd9fa24e	-0.07794629
118	0x3dec781a	0.11546345
119	0x3d61f92d	0.055169273
120	0xbe51d8e1	-0.20492889
121	0x3da95501	0.08268166
122	0x3e80793a	0.2509249
123	0xbe2e42a0	-0.17017603
124	0xbc92e0c7	-0.017929448
125	0x3dd4d05f	0.10391306
126	0xbe3a6dd7	-0.18205963
127	0xbe19c612	-0.15016964
128	0x3e4ec1c5	0.20191105
129	0xbdc06191	-0.09393609
130	0x3e00d060	0.12579489
131	0x3d8dfa69	0.069325276
132	0x3ca4fffe	0.020141598
133	0xbde12cea	-0.10994895
134	0x3c19cb3f	0.009386837
135	0x3db2e40b	0.08734902
136	0x3d37f3d1	0.044910256
137	0xbdf3c671	-0.11903084
138	0xbc86f1ef	-0.016472785
139	0x3d883cc3	0.066522144
140	0xbe8af0b6	-0.27136773
141	0x3dccb8b7	0.09996169
142	0xbe16d419	-0.14729346
143	0xbe28819a	-0.16455689
144	0x3e1ac88d	0.15115567
145	0xbdfcf9e7	-0.123523526
146	0xbce1a197	-0.027542872
147	0x3e813693	0.2523695
148	0x3d89fb74	0.06737414
149	0xbde17ba9	-0.110099144
150	0x3d4cc4ab	0.049992245
151	0x3e0ff40c	0.1405794
152	0x3c1f2f5b	0.00971588
153	0x3e2fe321	0.17176487
154	0xbdaedc66	-0.085381314
155	0x3d8ac15b	0.06775161
156	0x3d9f2858	0.07771367
157	0x3ca9634b	0.02067723
158	0x3e11ae69	0.14226688
159	0x3e4271be	0.18988702
160	0x3de6e55d	0.11274216
161	0x3cb54fa3	0.0221327
162	0x3dd3429b	0.10315438
163	0x3c3177b5	0.010831763
164	0xbe34d14d	-0.17657967
165	0xbe0e74de	-0.13911769
166	0xbdddc447	-0.108284526
167	0xbe1ed87a	-0.15512267
168	0x3dfbca08	0.12294394
169	0x3d86336d	0.065527774
170	0xbd7be740	-0.061499834
171	0xbdabaf07	-0.08382993
172	0x3e92f74e	0.28704304
173	0x3e44b53c	0.1920976
174	0x3e16a2a7	0.14710484
175	0x3e7a4265	0.2443939
176	0xbdaf2593	-0.085520886
177	0xbd545abf	-0.051844355
178	0xbd913028	-0.07089263
179	0x3cd39dd3	0.025832092
180	0xbe3faf43	-0.18719201
181	0x3e33f2fe	0.17573163
182	0xbc024b11	-0.007952468
183	0x3da891c9	0.08230931
184	0xbde2cb65	-0.11073951
185	0xbd6430f3	-0.055710744
186	0x3c8120f7	0.01576279
187	0xbd8b3fdc	-0.067992896
188	0x3e2a53e8	0.1663357
189	0xbe0529e6	-0.13004264
190	0x3c30655d	0.010766354
191	0xbe257c12	-0.1616061
192	0xbd1bee18	-0.03806886
193	0xbdc44181	-0.095828064
194	0x3d7b7391	0.06138951
195	0x3e123f03	0.1428185
196	0x3c728811	0.014802949
197	0xbd167fa7	-0.036742833
198	0xbd8804fd	-0.066415764
199	0x3e08ef53	0.13372545
200	0xbd29a7cb	-0.041419785
201	0x3e1b79e2	0.15183213
202	0xbdc7d080	-0.09756565
203	0x3e31471e	0.17312285
204	0x3e6b0528	0.22951186
205	0x3e0648f2	0.13113764
206	0x3dfaf881	0.122544296
207	0x3b5e451c	0.0033915704
208	0xbe27d3a4	-0.16389328
209	0xbd4d7eda	-0.050169803
210	0x3d101eb3	0.035185527
211	0xbde677f3	-0.11253347
212	0xbb6c5685	-0.0036062312
213	0x3dee5b9f	0.11638569
214	0xbe613b8b	-0.2199537
215	0xbe56d9ee	-0.20981571
216	0xbde212e8	-0.11038762
217	0x3cf0cfa6	0.02939589
218	0xbd58c916	-0.052926145
219	0x3dbaad64	0.09115103
220	0x3af31218	0.0018544821
221	0xbdd8f324	-0.105932504
222	0x3d6f4085	0.05841114
223	0x3e1b3ffa	0.15161124
224	0xbdef2e26	-0.11678724
225	0x3db8133a	0.08988042
226	0xbd2e3ec0	-0.04254031
227	0x3dab9416	0.083778545
228	0xbe3a7b14	-0.18211013
229	0xbe504c41	-0.20341589
230	0x3ca5dd45	0.020247111
231	0xbe50011e	-0.20312926
232	0xbe564b38	-0.20927131
233	0x3ce976ec	0.02849909
234	0xbd991729	-0.074751206
235	0xbeb3f532	-0.35148007
236	0xbd0bc080	-0.03411913
237	0xbda49754	-0.08036676
238	0x3db82c12	0.08992781
239	0xbe441868	-0.19149935
240	0xbe894af4	-0.26814997
241	0xbe850270	-0.25978422
242	0xbe1ad5ea	-0.15120664
243	0xbe6a0169	-0.228521
244	0xbda20c05	-0.07912449
245	0xbe25d685	-0.16195114
246	0xbd961b96	-0.0732948
247	0xbd3abf68	-0.045592695
248	0xbd2e862d	-0.04260843
249	0xbe6f15d0	-0.23348165
250	0x3d65ac87	0.056072738
251	0xbe2a645d	-0.16639848
252	0x3e330371	0.17481782
253	0x3e55f45c	0.20893997
254	0xbd1c2ace	-0.03812676
255	0x3dae9915	0.08525292

layer1.0.bias f4 [16]
0	0xbaa57b95	-0.0012625331
1	0x3e13327a	0.14374724
2	0xbdac2620	-0.08405709
3	0xbdb3b065	-0.08773879
4	0x3e72b9c6	0.2370368
5	0xbd88780f	-0.06663524
6	0x3ba2bc3c	0.004966287
7	0x3d463719	0.04839239
8	0x3c6fa8c8	0.014627643
9	0xbe6cc9ed	-0.23123904
10	0xbe556831	-0.20840527
11	0xbe0894d5	-0.13338025
12	0xbdfcb07f	-0.123383515
13	0xbb8dc63b	-0.0043266094
14	0xbd15308b	-0.036423247
15	0xbe596da4	-0.21233231

layer1.1.weight f4 [16]
0	0x3f7bd232	0.9836761
1	0x3f4d17e4	0.8011458
2	0x3f7e245a	0.9927422
3	0x3f7f6533	0.9976379
4	0x3f9801eb	1.1875585
5	0x3f69b688	0.91294146
6	0x3f651d9c	0.89498305
7	0x3f5aebf2	0.85516274
8	0x3f81ed3a	1.0150521
9	0x3f814ed0	1.0102177
10	0x3f512501	0.8169709
11	0x3f61d40e	0.88214195
12	0x3f486fe7	0.7829575
13	0x3f7e79f7	0.99404854
14	0x3f9dd363	1.2330135
15	0x3f3cef2d	0.73802453

layer1.1.bias f4 [16]
0	0x3da0ef52	0.07858147
1	0xbe2e92bd	-0.17048164
2	0xbbf56266	-0.0074885366
3	0x3d61fac9	0.055170808
4	0xbe6420f2	-0.22278193
5	0xbced3595	-0.028956214
6	0xbe215a58	-0.1575712
7	0x3dcda16c	0.100405544
8	0xbda31091	-0.07962144
9	0xbd813820	-0.06309533
10	0xbe11c12a	-0.14233842
11	0xbc831506	-0.016001236
12	0xbdf0b506	-0.117532775
13	0xbcd7fade	-0.02636474
14	0xbd0a797f	-0.033807274
15	0xbe51fbb0	-0.20506167

layer1.1.running_mean f4 [16]
0	0xbdfea929	-0.124346085
1	0xbe14082c	-0.14456242
2	0xbe68db11	-0.22739817
3	0xbe106c58	-0.1410383
4	0x3e6fd3d5	0.23420651
5	0x3e468392	0.19386128
6	0x3dec476c	0.1153706
7	0x3d23812f	0.03991812
8	0xbf4d9d8a	-0.8031851
9	0xbf00df50	-0.5034075
10	0x3f353ec4	0.707989
11	0xbd863957	-0.065539055
12	0x3efd778f	0.49505278
13	0xbe8738f2	-0.26410633
14	0xbd037d13	-0.032101702
15	0x3f0451fe	0.5168761

layer1.1.running_var f4 [16]
0	0x3c0d2156	0.008613905
1	0x3ccd3d56	0.025053661
2	0x3c27e993	0.0102485595
3	0x3bce6fba	0.00629994
4	0x3c0ad876	0.00847446
5	0x3d2bd667	0.041952517
6	0x3bcf8110	0.006332524
7	0x3be8f7c0	0.007109612
8	0x3e63093a	0.22171488
9	0x3cb3e4a9	0.02195962
10	0x3e4dbccd	0.20091553
11	0x3c1a3d7c	0.009414073
12	0x3dd89f65	0.10577277
13	0x3cb38e20	0.021918356
14	0x3b8f00b3	0.004364097
15	0x3e03f6e1	0.12887146

layer2.0.weight f4 [32, 16, 3, 3]
0	0xbe0a7365	-0.13520582
1	0xbd88521b	-0.066562854
2	0xbcf5a75f	-0.029987035
3	0xbb277433	-0.0025551438
4	0xbd955694	-0.07291904
5	0x3d63e436	0.05563756
6	0xbb29834f	-0.002586562
7	0xbddbd4f4	-0.10733977
8	0x3c73f375	0.014889588
9	0xbda1e445	-0.07904867
10	0xbcb91b31	-0.022595974
11	0x3b75a77e	0.0037483866
12	0x3c02b3db	0.007977451
13	0xbcd33420	-0.025781691
14	0x3d10ff5d	0.035399783
15	0x3c7c8bac	0.01541416
16	0xbb04d116	-0.0020266226
17	0xbc67ea26	-0.014154946
18	0x3b4121dc	0.0029469645
19	0xbb739f3d	-0.003717377
20	0xbcfe10db	-0.031013897
21	0x3c8c4464	0.017122455
22	0xbe3681a0	-0.17822886
23	0xbd496e66	-0.04917755
24	0xbd90f334	-0.07077637
25	0xbc2f10bf	-0.010685145
26	0x3ca14b51	0.019689234
27	0xbc047a1a	-0.008085752
28	0xbdc45fca	-0.09588583
29	0xbd90fb69	-0.07079203
30	0x3c82752b	0.01592501
31	0xbdb3ea9d	-0.08784983
32	0x3d1569b5	0.036477763
33	0xbd4a77d8	-0.0494307
34	0x3b806e84	0.0039194245
35	0x3e1b2464	0.151506
36	0xbe7ee1ed	-0.24890871
37	0xbe56ea72	-0.20987871
38	0xbd684ebc	-0.056715712
39	0xbdbc5773	-0.09196367
40	0xbe6b4b2c	-0.22977895
41	0x3df693ee	0.12039934
42	0xbdf89802	-0.12138368
43	0xbd96d8a1	-0.073655374
44	0x3e8ccff5	0.2750241
45	0xbd856ad8	-0.065145195
46	0xbda930ff	-0.082612984
47	0x3bc635c8	0.0060488917
48	0x3d5a45b8	0.053289145
49	0x3dbea108	0.09308058
50	0x3de2687a	0.110550836
51	0x3d0ba3a7	0.034091618
52	0x3d499647	0.04921558
53	0x3d7ca4a0	0.061680436
54	0xbe09fdc0	-0.13475704
55	0xbd06bfee	-0.032897882
56	0xbdc9805a	-0.09838934
57	0xbc8d1da6	-0.017226052
58	0x3d315da3	0.04330219
59	0x3d6497ff	0.055809017
60	0x3d47849e	0.048710458
61	0x3c599e17	0.01328232
62	0x3d616a8b	0.055033248
63	0x3b695826	0.003560552
64	0x3ce01b7c	0.027356856
65	0x3b6a71da	0.0035773427
66	0xbbfb0569	-0.007660557
67	0xbca9db52	-0.020734463
68	0x3c5b8298	0.013397835
69	0x3d4c4288	0.049868137
70	0xbd668c72	-0.056286283
71	0x3d99a5ac	0.075023025
72	0xbcebc83b	-0.028782
73	0xbd86d627	-0.06583815
74	0x3daabca9	0.08336765
75	0x3d9820b7	0.07428115
76	0xbd446119	-0.047944162
77	0x3d07a459	0.03311572
78	0x3ddced11	0.10787404
79	0x3db1cdff	0.08681869
80	0x3d6f6c90	0.058453143
81	0xbc38bd20	-0.01127556
82	0xbd4308c1	-0.04761577
83	0xbd429691	-0.047506873
84	0xbd789947	-0.06069305
85	0xbdb7f0f8	-0.08981508
86	0x3d4faf8b	0.05070452
87	0x3adbf3cd	0.0016781032
88	0xbcb1eb26	-0.021718573
89	0x3d0b0d2d	0.033948112
90	0xbda4a12e	-0.08038555
91	0x3d238292	0.039919443
92	0xbd40cb84	-0.047069088
93	0x3c8912f0	0.016732663
94	0x3dac91f0	0.08426273
95	0xbd87a864	-0.06623915
96	0xbdd5958d	-0.10428915
97	0xbc61edeb	-0.013789634
98	0x3d38247b	0.044956665
99	0x3d35cdb4	0.044385627
100	0xbb9a36a8	-0.0047062226
101	0xbdc89306	-0.097936675
102	0xbb95737c	-0.004560886
103	0xbcd3ebfd	-0.025869364
104	0x3c6dea07	0.0145211285
105	0xbd85a71f	-0.065260164
106	0x3dd9e91d	0.10640166
107	0xbd332140	-0.04373288
108	0xbc0670a6	-0.008205568
109	0xbb8c9695	-0.0042904117
110	0x3d89e833	0.067337416
111	0xbd6959e2	-0.056970485
112	0x3debaa9b	0.1150715
113	0xbd0131ef	-0.03154176
114	0x3ca6b591	0.02035025
115	0x3cbffec0	0.023436904
116	0x3d460795	0.048347075
117	0x3db4e6c0	0.088330746
118	0xbd8996c9	-0.06718213
119	0x3cee4689	0.029086368
120	0xbd68a6c7	-0.056799676
121	0xbd851e9b	-0.06499978
122	0x3c9814ea	0.01856466
123	0x3cac306a	0.02101918
124	0x3c204df1	0.009784208
125	0x3df1827c	0.11792466
126	0xbd081e24	-0.03323187
127	0xbdd8ab15	-0.10579506
128	0xbe24ad8b	-0.16081826
129	0x3e2478f4	0.16061765
130	0xbe263c8b	-0.16234033
131	0xbda9d3ef	-0.08292376
132	0x3e018149	0.12646975
133	0x3d17f402	0.03709794
134	0xbcb35be5	-0.021894405
135	0xbdb8b568	-0.090189755
136	0x3d41ec90	0.047344744
137	0x3d1f105a	0.038833953
138	0x3c95e350	0.018296868
139	0x3da6d35a	0.08145781
140	0xbd7e0c1d	-0.06202327
141	0xbbfb4430	-0.0076680407
142	0x3d1493d3	0.03627379
143	0xbcdde21f	-0.027085362
144	0xbd68cd7f	-0.0568366
145	0x3cece4f4	0.028917767
146	0xbd168093	-0.03674371
147	0xbe17419c	-0.14771122
148	0xbd5adaae	-0.053431205
149	0xbdb4e5d3	-0.08832898
150	0xbe01cffd	-0.12676997
151	0xbdb000ce	-0.085939035
152	0xbdf0770f	-0.117414586
153	0xbb42a7f1	-0.0029702152
154	0x3d19b39f	0.037524816
155	0xbc5d45f0	-0.013505444
156	0xbc371f4b	-0.011176894
157	0xbd1ad2ce	-0.037798695
158	0xbdc6ff21	-0.09716631
159	0xbbfa1104	-0.007631423
160	0x3d26c9f4	0.04071994
161	0xbd980b81	-0.07424069
162	0x3d92d64b	0.071697794
163	0x3d0e2a85	0.03470852
164	0x3d1e7156	0.038682304
165	0x3d7c8cc8	0.061657697
166	0x3cd2d9b8	0.025738582
167	0xbcee750b	-0.029108545
168	0x3d4c7293	0.049913954
169	0x3d3c6a76	0.045999967
170	0x3d95a80b	0.07307442
171	0x3db754b9	0.089517064
172	0x3c186429	0.009301224
173	0xbdceb803	-0.10093691
174	0xbd7e3cf5	-0.062069852
175	0xbde8d882	-0.113694206
176	0xbe264c5b	-0.16240065
177	0x39d246e0	0.00040107127
178	0xbc85def4	-0.016341664
179	0xbddaef2d	-0.106901504
180	0x3d46b529	0.04851261
181	0xbca5e07b	-0.020248642
182	0xbcc192c5	-0.023629555
183	0x3de29425	0.110634126
184	0xbd3a4634	-0.045477107
185	0xbb051ae7	-0.0020310224
186	0x3d3f6b83	0.04673339
187	0x3d39e7e1	0.045387153
188	0xbd729b24	-0.059229985
189	0xbdde3b21	-0.10851122
190	0xbe284f8c	-0.16436595
191	0xbe08c5b2	-0.13356665
192	0xbdbedddb	-0.09319659
193	0xbded3b1e	-0.11583541
194	0xbe1bf6d5	-0.15230878
195	0xbdbe2b0f	-0.092855565
196	0xbd91abb2	-0.071128264
197	0xbd720c27	-0.05909362
198	0xbd3c31c8	-0.045945913
199	0xbd32f1b7	-0.04368755
200	0xbd760c2a	-0.060070194
201	0x3c227788	0.009916194
202	0xbda75259	-0.081700034
203	0xbcd42170	-0.02589485
204	0xbd90cbd4	-0.07070127
205	0xbda51798	-0.08061141
206	0xbdbeaced	-0.09310327
207	0xbde666a2	-0.112500444
208	0xbe21c5dc	-0.15798134
209	0xbd9e036e	-0.07715498
210	0xbe08ffb0	-0.13378787
211	0xbde79e9b	-0.113095485
212	0xbdf15607	-0.117839865
213	0x3d0f1bc1	0.034938578
214	0xbdc4d058	-0.09610051
215	0xbd5b5caa	-0.05355517
216	0x3da38477	0.0798425
217	0x3d9d3a6e	0.0767716
218	0x3db9de4f	0.09075605
219	0x3d7de74f	0.06198817
220	0x3de4523d	0.11148498
221	0xbc8343ca	-0.016023535
222	0x3e1b3a9e	0.1515908
223	0x3d843d0e	0.06456958
224	0xbc96b438	-0.018396482
225	0xbd893447	-0.06699424
226	0x3bc33238	0.0059569143
227	0x3d3377bf	0.04381537
228	0xbdf9af49	-0.12191636
229	0xbdfb0631	-0.1225704
230	0x3954c018	0.00020289456
231	0xbdd6b9cc	-0.10484657
232	0xbdf4655e	-0.11933397
233	0x3bbfd58a	0.0058543133
234	0xbcf730ac	-0.030174576
235	0xbd180d4b	-0.037122052
236	0xbd73c484	-0.059513584
237	0x3d636e24	0.05552496
238	0xbd49b0bd	-0.049240816
239	0x3d658591	0.056035582
240	0xbd196a2e	-0.037454776
241	0xbb344445	-0.0027506512
242	0xbdaaf4f2	-0.08347501
243	0xbd9fa89d	-0.07795832
244	0xbdac6239	-0.08417172
245	0xbcde0bb4	-0.02710519
246	0xbddffb00	-0.10936546
247	0x3d87618a	0.06610401
248	0xbd7574bb	-0.059925776
249	0xbdc87b3e	-0.097891316
250	0xbd9bb1a4	-0.07602242
251	0xbdd915f5	-0.10599891
252	0xbdb2b4fb	-0.087259255
253	0xbd4a09c7	-0.04932573
254	0xbe301023	-0.17193656
255	0xbd1d0572	-0.03833527

layer2.0.bias f4 [32]
0	0x3d5b4a04	0.053537384
1	0x3cbacbf5	0.022802332
2	0xbb4b6e0b	-0.0031040933
3	0xbd59d720	-0.053183675
4	0xbe0e1461	-0.13874961
5	0x3cba5ae9	0.022748427
6	0xbe4c81db	-0.19971411
7	0x3d7fafaa	0.062423386
8	0xbd99e21e	-0.075138316
9	0x3d8efd2b	0.06981882
10	0x3cc93a99	0.024564074
11	0xbc4b998f	-0.012426748
12	0xbdee6107	-0.116396
13	0xbd9cffda	-0.07665987
14	0x3c8b226f	0.016984193
15	0x3d1deb62	0.038554557
16	0x3d1d997f	0.038476463
17	0x3c9af765	0.018916795
18	0xbdbddefb	-0.09271046
19	0xbdb48599	-0.08814544
20	0x3dfe6284	0.12421134
21	0x3b33a1f4	0.0027409764
22	0x3ce01c6f	0.027357308
23	0x3c95228b	0.018204948
24	0xbe2e2bdd	-0.1700892
25	0x3c8389b5	0.016056875
26	0xbe214c60	-0.15751791
27	0xbd154974	-0.036447003
28	0xbc0b810a	-0.008514652
29	0xbd7680ca	-0.060181417
30	0xbc909959	-0.017651247
31	0xbc804336	-0.015657049

layer2.1.weight f4 [32]
0	0x3f7c00f3	0.9843895
1	0x3f6b034f	0.91801924
2	0x3f668e0c	0.90060496
3	0x3f82df6a	1.022443
4	0x3f85ce00	1.0453491
5	0x3f75dc19	0.9603897
6	0x3f78c093	0.97168845
7	0x3f869fdd	1.0517536
8	0x3f828487	1.0196694
9	0x3f64593b	0.89198655
10	0x3f72fb74	0.94914937
11	0x3f67d069	0.90552384
12	0x3f817488	1.0113688
13	0x3f61b784	0.8817065
14	0x3f7a6a97	0.97818893
15	0x3f8d320d	1.1030899
16	0x3f8ce656	1.1007793
17	0x3f7e4bfb	0.99334687
18	0x3f8164bd	1.0108868
19	0x3f88c6db	1.0685686
20	0x3f86f77b	1.0544275
21	0x3f8041d3	1.0020088
22	0x3f645dd5	0.89205676
23	0x3f82d31e	1.0220678
24	0x3f5e6e11	0.868867
25	0x3f864c56	1.0492046
26	0x3f6d0156	0.92580163
27	0x3f8b8637	1.0900334
28	0x3f8a92b6	1.0826023
29	0x3f7c65fc	0.98593116
30	0x3f81ab76	1.0130451
31	0x3f758655	0.959081

layer2.1.bias f4 [32]
0	0xbe53df9d	-0.2069077
1	0xbe4546f8	-0.19265354
2	0xbe18847f	-0.14894293
3	0x3d35cd2d	0.044385124
4	0xbde98bb8	-0.11403602
5	0xbdff41f0	-0.124637485
6	0xbd8b1aaf	-0.06792199
7	0xbb90e78b	-0.0044221333
8	0xbe249417	-0.16072117
9	0xbdce750c	-0.10080919
10	0xbe070d3a	-0.1318864
11	0xbe80357a	-0.250408
12	0xbd9dd47d	-0.077065445
13	0xbe0f8e21	-0.14019062
14	0xbe113ba9	-0.14182915
15	0x3d091c07	0.033473995
16	0xbd19b6b2	-0.037527747
17	0xbda3c257	-0.07996052
18	0xbd22779c	-0.03966485
19	0x3a2364c8	0.0006232974
20	0xbe0f4e79	-0.13994779
21	0xbe38160b	-0.17977159
22	0xbe250426	-0.16114864
23	0xbd51aacd	-0.05118828
24	0xbd85f706	-0.065412566
25	0xbe0b43ab	-0.13600032
26	0xbb600b45	-0.0034186405
27	0xbd7b44ba	-0.06134484
28	0xbd8da9a6	-0.069171235
29	0xbe31eceb	-0.17375533
30	0x3beb6646	0.007183823
31	0xbda6e29e	-0.081486925

layer2.1.running_mean f4 [32]
0	0xbf41ab6d	-0.756522
1	0xc018af13	-2.3856857
2	0x3e8c7f0f	0.27440688
3	0xbdb0d79e	-0.08634876
4	0xbf29a0cb	-0.66260976
5	0xbe2b97ee	-0.16757175
6	0xbf2d6aac	-0.67740893
7	0x3f471e56	0.77780664
8	0xbdeee49a	-0.11664696
9	0xbf9b0cbc	-1.2113261
10	0x3dc0d8e2	0.09416367
11	0x3f91bba2	1.1385386
12	0x3ea8d4f3	0.32974967
13	0xc01d21d3	-2.4551895
14	0x3f6d0711	0.9258891
15	0xbde25fa6	-0.110534
16	0xc00dc490	-2.2151222
17	0x3ee7b6f4	0.4525677
18	0xc07f6919	-3.9907897
19	0xbf138286	-0.5762104
20	0xbe60941c	-0.21931499
21	0xbf056fbf	-0.52123636
22	0xbff1801e	-1.8867223
23	0xbf995dea	-1.1981785
24	0x3f2c4ce0	0.673048
25	0x3ea85bb4	0.32882464
26	0x3ef32baa	0.4749425
27	0xbfd6a68a	-1.6769574
28	0xbeed6fdb	-0.463744
29	0xbfc3008a	-1.523454
30	0xc027fa00	-2.6246338
31	0xbeb2065d	-0.3477048

layer2.1.running_var f4 [32]
0	0x3f93470c	1.1506057
1	0x4041e1bd	3.029403
2	0x3f862e55	1.048289
3	0x3fc61260	1.5474358
4	0x3f17a7b5	0.59240276
5	0x3ec376d6	0.38176602
6	0x3f3ba573	0.7329933
7	0x3f300369	0.68755203
8	0x3f9136e4	1.1344876
9	0x3f7a5abe	0.9779471
10	0x3f354847	0.7081341
11	0x3fd602fb	1.671966
12	0x3f89987a	1.0749657
13	0x403da115	2.9629567
14	0x3fd4fdcc	1.6639953
15	0x3f7717b5	0.9652055
16	0x404c7aeb	3.1950023
17	0x3fce6f32	1.6127684
18	0x40951848	4.659214
19	0x3fceeebd	1.6166607
20	0x3f45215c	0.7700403
21	0x3f82d430	1.0221004
22	0x405d068c	3.4535246
23	0x3fb852bd	1.440025
24	0x402b3590	2.6751442
25	0x3f8e3192	1.1108878
26	0x400abd3f	2.1678007
27	0x3f8dd344	1.1080098
28	0x3fb047a1	1.377186
29	0x4004a4c2	2.072556
30	0x4040057f	3.0003355
31	0x400c00ce	2.187549

layer3.0.weight f4 [64, 32, 3, 3]
0	0xbc666c5b	-0.01406392
1	0xbd18316a	-0.0371565
2	0x3cc0cfae	0.02353653
3	0x3da9d36e	0.0829228
4	0x3d9a4b2d	0.0753387
5	0x3ca37825	0.01995475
6	0x3d8dedb4	0.06930104
7	0x3d60bc2a	0.054866947
8	0x3cdb4bc7	0.026769532
9	0x3db4a5e0	0.08820701
10	0x3e0ba273	0.13636188
11	0x3d74b4b5	0.05974265
12	0x3b084a48	0.0020796228
13	0x3d02c9bd	0.031930674
14	0xbd1bdaa8	-0.038050324
15	0xbca39b31	-0.019971462
16	0xbc46c788	-0.012132533
17	0xbd3a387f	-0.045464035
18	0xbcf58e6f	-0.029975144
19	0xbd2aeb0a	-0.041728057
20	0x3d2bf7ab	0.04198424
21	0x3dab745e	0.08371805
22	0x3d881891	0.06645311
23	0x3cffe0eb	0.031235179
24	0x3da05072	0.07827844
25	0x3dd0029d	0.101567484
26	0xbd04ec2c	-0.032451794
27	0xbcd143c3	-0.025545007
28	0xbd2e9be9	-0.042629156
29	0x3d6c56f4	0.057700112
30	0x3d609c21	0.054836396
31	0x3cd506f8	0.0260043
32	0xbbcf7345	-0.00633088
33	0x3cc1c6fa	0.02365445
34	0x3d8fce17	0.070217304
35	0x3ddb117a	0.10696693
36	0xbdedacdb	-0.11605235
37	0xbe04b410	-0.12959313
38	0xbce2012e	-0.027588453
39	0xbd12ca31	-0.035837356
40	0x3c9061ea	0.017624814
41	0x3d9f002a	0.07763703
42	0x3d5b2ce4	0.053509608
43	0x3e24c6a9	0.16091408
44	0x3d874ba3	0.066062234
45	0xbc64d420	-0.01396659
46	0x3ccad367	0.024759008
47	0x3dbbac4f	0.09163725
48	0xbd38de98	-0.045134157
49	0x3b7e1722	0.0038771112
50	0xbc969a00	-0.01838398
51	0xbca6f724	-0.020381518
52	0x3cf3f5d8	0.029780313
53	0xbdbe0393	-0.092780255
54	0xbe111069	-0.14166416
55	0xbdef51aa	-0.11685498
56	0xbd8e15c8	-0.06937748
57	0xbd8e4428	-0.069465935
58	0xbc419985	-0.011816387
59	0xbccca12e	-0.0249792
60	0x3e0e033e	0.13868424
61	0x3dfdb428	0.12387878
62	0x3d74d41d	0.0597726
63	0xbe24e1bb	-0.16101734
64	0xbdcf5590	-0.101237416
65	0xbe0f5469	-0.13997044
66	0x3c7af5cd	0.015317393
67	0x3dacfef8	0.08447069
68	0x3c82227a	0.01588558
69	0xbd1bc49b	-0.038029294
70	0x3d434ca7	0.047680523
71	0x3da84917	0.08217066
72	0xbcd9d65e	-0.026591476
73	0x3cc9aa48	0.02461733
74	0xbd8152c2	-0.06314613
75	0x3c5b4944	0.013384167
76	0x3de8d9f6	0.11369698
77	0xbcc8b542	-0.024500493
78	0xbcfb8957	-0.030705137
79	0x3db4c17d	0.088259675
80	0x3caadf64	0.020858474
81	0xbdaebba0	-0.085318804
82	0xbdbaa772	-0.09113969
83	0xbd165441	-0.036701445
84	0xbc79b175	-0.015240063
85	0x3dacf8b5	0.084458746
86	0xbc58d6fb	-0.013234849
87	0x3dc2fd5b	0.0952098
88	0x3e0e68a9	0.13907112
89	0x3d27bb98	0.040950388
90	0x3d6a888a	0.05725912
91	0x3dd9f2e3	0.1064203
92	0xbcab569d	-0.020915324
93	0xbc698d03	-0.014254811
94	0x3b7e43f5	0.003879783
95	0xbd3a04bf	-0.045414682
96	0xbdd38335	-0.1032776
97	0x3c654114	0.013992567
98	0xbd05e344	-0.03268744
99	0xbd8276e1	-0.063703306
100	0xbd13da83	-0.03609706
101	0xbc3b7175	-0.0114406245
102	0x3d314cb7	0.04328605
103	0x3c567733	0.013089943
104	0xbc961b22	-0.018323485
105	0x3c936bb7	0.017995698
106	0x3da4bac4	0.08043435
107	0xbcd9b961	-0.026577653
108	0x3d48379e	0.048881166
109	0x3da8934c	0.0823122
110	0x3d777e36	0.0604231
111	0x3c418167	0.011810637
112	0x3d338bcb	0.04383449
113	0x3c2a0b20	0.010378629
114	0xbc366856	-0.011133274
115	0x3c55d5b6	0.013051441
116	0x3b9e4cc6	0.0048309295
117	0xbc9e1e16	-0.019301455
118	0x3ce0512d	0.027382458
119	0xbd2f0aea	-0.042735018
120	0x3d04d61b	0.03243075
121	0x3d5a55a2	0.053304322
122	0x3d8b9490	0.068154454
123	0x3cbe7e0c	0.023253463
124	0x3dc2f185	0.095187224
125	0x3daf9b0e	0.08574496
126	0xbc28ee8c	-0.01031078
127	0xbc817e81	-0.015807392
128	0x3d5cfa11	0.05394942
129	0xbd37ca60	-0.044870734
130	0x3da13ac9	0.078725405
131	0x3c5ffeff	0.013671636
132	0x3c874693	0.016513145
133	0x3d72c0b9	0.059265826
134	0xbc096f38	-0.008388333
135	0xbda5c776	-0.08094685
136	0xbd8a6683	-0.06757834
137	0xbd1ee5a4	-0.03879322
138	0xbcc8003d	-0.024414176
139	0xbcbed41b	-0.0232945
140	0xbc233f42	-0.009963812
141	0x3cf8cc01	0.030370714
142	0x3d1eeead	0.038801838
143	0x3dbcd587	0.092204146
144	0x3da75020	0.081695795
145	0x3dc7bfff	0.09753417
146	0x3d8d7b83	0.069083236
147	0x3d14eecc	0.036360547
148	0x3ccc436e	0.024934497
149	0xbd2500e2	-0.040284045
150	0xbdebb95a	-0.115099624
151	0xbe47064f	-0.19436
152	0xbe145742	-0.14486411
153	0xbd19c0c6	-0.03753736
154	0xbce34283	-0.027741676
155	0x3ccde5e3	0.025134033
156	0x3dbfb826	0.093612954
157	0x3d737819	0.059440706
158	0x3c2aa171	0.010414467
159	0x3d3b2bc7	0.045696046
160	0x3ce56c21	0.028005661
161	0xbc0f9666	-0.008763885
162	0x3d988fe5	0.07449321
163	0x3c798645	0.015229766
164	0x3da9f04f	0.08297788
165	0x3d164e09	0.036695514
166	0x3ca03254	0.019555248
167	0x3cdb2304	0.026750095
168	0x3d8e3462	0.06943585
169	0xba875124	-0.0010323864
170	0x3d48406a	0.048889555
171	0xbd2af87c	-0.04174088
172	0xbce36079	-0.027755963
173	0xbd5d00b7	-0.05395576
174	0xb820f6c0	-3.8376777e-05
175	0x3cbf4ce2	0.02335209
176	0xbcae112b	-0.02124842
177	0x3dddb945	0.10826353
178	0x3e20d913	0.15707807
179	0x3e0401eb	0.12891357
180	0xbda7515c	-0.08169815
181	0x3d8cbc57	0.068718605
182	0x3dbd3aa5	0.09239701
183	0x3c83faf5	0.016110877
184	0x3e06df67	0.13171159
185	0xbcc510c9	-0.024055855
186	0x3dac0868	0.08400041
187	0x3d79ac82	0.060955532
188	0xbd7ef815	-0.06224831
189	0xbdec5a49	-0.11540658
190	0xbb7caf91	-0.0038556794
191	0x3d312c8e	0.04325538
192	0x3d1a9d9b	0.03774796
193	0x3d2c7146	0.042100213
194	0x3dba4dd7	0.09096878
195	0x3d6a44ab	0.057194393
196	0x3d3dd114	0.04634197
197	0x3d137982	0.03600455
198	0x3d568183	0.052369606
199	0x3db977e6	0.09056072
200	0x3d4eae20	0.050459027
201	0xbd1d7009	-0.038436923
202	0x3c07c41e	0.008286504
203	0x3b96ca38	0.004601743
204	0xbdd3e605	-0.10346607
205	0xbe1f494f	-0.15555309
206	0xbd9be8d2	-0.07612766
207	0x3d4d27d9	0.05008683
208	0x3dc4e3de	0.09613775
209	0x3cf9a05e	0.030471977
210	0xbaf8fb36	-0.0018995765
211	0xbd36c3a5	-0.044620175
212	0xbb471b48	-0.003038125
213	0xbdb24375	-0.08704273
214	0xbe0c6a15	-0.13712342
215	0xbe190f71	-0.14947297
216	0xbd6c64c8	-0.0577133
217	0xbd2f5132	-0.042802043
218	0xbd889fe7	-0.06671124
219	0x3d744844	0.05963923
220	0x3cbb7479	0.022882687
221	0xbcf2f53e	-0.029657956
222	0x3d4af285	0.04954769
223	0x3ddd7666	0.10813598
224	0x3d19fd58	0.037595123
225	0x3e0674bb	0.13130467
226	0x3e372856	0.1788648
227	0x3c65de39	0.014030033
228	0xbc68a73d	-0.014200029
229	0x3dc5a6c1	0.096509464
230	0x3c2cb82e	0.010541959
231	0xbd85ae39	-0.06527371
232	0xbdfacbca	-0.12245901
233	0xbdcd0d37	-0.10012286
234	0x3b4fb50a	0.00316936
235	0xbc9fc879	-0.019504772
236	0xbd217250	-0.039415658
237	0x3da684b5	0.081307806
238	0x3df35e43	0.11883213
239	0xbc8b32c2	-0.016991977
240	0x3ddcf211	0.10788358
241	0x3dbf60a1	0.093446024
242	0x3d8dfd0e	0.06933032
243	0xbdf0391a	-0.11729641
244	0xbe7f8146	-0.24951658
245	0xbd39bd1c	-0.045346364
246	0xbd62b245	-0.055345792
247	0xbda3b8f5	-0.07994262
248	0x3ce4a8cd	0.027912522
249	0x3dce7124	0.100801736
250	0x3e082dff	0.13298796
251	0x3def4ee2	0.116849676
252	0xbe2ff1a4	-0.17182022
253	0xbdf7203d	-0.12066696
254	0xbde212dd	-0.11038754
255	0x3c51e3e1	0.012810678

layer3.0.bias f4 [64]
0	0x3d6a6865	0.057228465
1	0x3c926810	0.017871886
2	0xbbfe8dc0	-0.0077683628
3	0x3cf1bae5	0.029508064
4	0x3ba137a8	0.004919965
5	0xbcd0bd5d	-0.02548092
6	0x3d59c52f	0.053166565
7	0x3d4935b3	0.049123477
8	0xbc973a2a	-0.018460352
9	0xbce8fe2c	-0.028441511
10	0x3a1f66c6	0.0006080683
11	0xbd5c6e76	-0.05381628
12	0xbab04665	-0.0013448714
13	0x3d717d4a	0.058957376
14	0xbc528367	-0.012848712
15	0xbd8003af	-0.062507026
16	0x3d221503	0.03957082
17	0xbd24f051	-0.040268246
18	0xbd3605e5	-0.044439215
19	0xbd4661b8	-0.048433036
20	0xbd58cd85	-0.052930374
21	0x3d9c12de	0.07620786
22	0x3d37b3cc	0.044849202
23	0x3d59f579	0.053212617
24	0xbce08259	-0.027405905
25	0x3d25841a	0.040409185
26	0xbc286ed0	-0.010280326
27	0x3d23a141	0.039948706
28	0xbce212f0	-0.02759692
29	0xbd5abb3b	-0.053401213
30	0xbcb8a173	-0.022537922
31	0x3ccdebbf	0.025136827
32	0x3c2ec90a	0.010668049
33	0xbd16f035	-0.036850173
34	0xbd71557b	-0.05891941
35	0x3cf81858	0.030285046
36	0x3d5ce1a7	0.053926136
37	0x3c973730	0.018458933
38	0xbc6821fb	-0.014168258
39	0x3d05aeb3	0.03263731
40	0xbb4d2715	-0.0031303812
41	0x3d59b890	0.05315453
42	0xbd3df223	-0.046373498
43	0xbce94afe	-0.028478142
44	0x3b952538	0.004551556
45	0xbd543f34	-0.051818088
46	0xbcf6e92f	-0.030140487
47	0x3d450b5e	0.048106544
48	0x3d33b0c6	0.043869756
49	0x3c04cf7b	0.008106108
50	0xbd7fa9e3	-0.062417876
51	0x3ce41dba	0.027846206
52	0x3d1f9eab	0.038969677
53	0xbbd2cfe9	-0.006433476
54	0x3ce7a66f	0.028277604
55	0xbbc9b029	-0.006155033
56	0xba5aa051	-0.0008339929
57	0xbd85e989	-0.06538684
58	0x3d1b31db	0.037889343
59	0xbd350014	-0.044189528
60	0xbd19d3ab	-0.037555378
61	0x3d854508	0.06507307
62	0x3ce73a74	0.028226115
63	0x3c2e83c6	0.010651534

layer3.1.weight f4 [64]
0	0x3f8604b1	1.0470182
1	0x3f84b0cb	1.0366453
2	0x3f8977b1	1.0739652
3	0x3f808e34	1.0043397
4	0x3f638261	0.8887082
5	0x3f8450dc	1.0337176
6	0x3f5f643b	0.87262315
7	0x3f871f0e	1.0556352
8	0x3f89356a	1.0719426
9	0x3f875181	1.0571748
10	0x3f8258cf	1.0183352
11	0x3f87abd5	1.0599314
12	0x3f806151	1.0029699
13	0x3f887fc2	1.0663989
14	0x3f802ee7	1.0014313
15	0x3f80d8e5	1.0066191
16	0x3f8abed4	1.0839486
17	0x3f836011	1.0263692
18	0x3f811c3b	1.008674
19	0x3f84bab6	1.036948
20	0x3f8f51a5	1.1196791
21	0x3f885eac	1.0653892
22	0x3f86e155	1.0537516
23	0x3f830714	1.0236535
24	0x3f80b0b2	1.0053923
25	0x3f635449	0.88800484
26	0x3f889233	1.0669616
27	0x3f870ff8	1.0551748
28	0x3f7d9cdc	0.99067473
29	0x3f84de82	1.0380404
30	0x3f883031	1.0639707
31	0x3f66edef	0.9020681
32	0x3f87865a	1.0587876
33	0x3f87e9df	1.0618247
34	0x3f8749fd	1.0569454
35	0x3f8368ce	1.0266359
36	0x3f84c54e	1.0372713
37	0x3f888ee8	1.0668612
38	0x3f861489	1.0475017
39	0x3f822090	1.0166187
40	0x3f811a64	1.0086179
41	0x3f750295	0.95707065
42	0x3f87a7c5	1.0598074
43	0x3f8988c3	1.0744861
44	0x3f86e1d5	1.0537668
45	0x3f82e29a	1.0225403
46	0x3f815a3b	1.0105661
47	0x3f89ee2b	1.0775808
48	0x3f7e9eda	0.9946114
49	0x3f84c074	1.0371232
50	0x3f790aec	0.9728229
51	0x3f79a5bc	0.97518516
52	0x3f7edf84	0.9955981
53	0x3f86afb6	1.0522373
54	0x3f79ada6	0.9753059
55	0x3f7a1e72	0.97702706
56	0x3f85ca71	1.0452405
57	0x3f879b3f	1.0594252
58	0x3f829c5e	1.020397
59	0x3f863971	1.048628
60	0x3f7c6cff	0.98603815
61	0x3f7de924	0.9918387
62	0x3f8c8592	1.0978262
63	0x3f83745f	1.0269889

layer3.1.bias f4 [64]
0	0xbdb5f58a	-0.088847235
1	0xbdb561a1	-0.08856512
2	0xbbcccd14	-0.006250033
3	0xbdc05808	-0.09391791
4	0xbdfbe788	-0.123000205
5	0xbddda84b	-0.10823115
6	0xbe389301	-0.18024828
7	0xbd39ca68	-0.045359045
8	0xbd26b34d	-0.04069834
9	0x3ca4bbc8	0.020109072
10	0xbbf07445	-0.007338079
11	0xbdbec6e4	-0.09315279
12	0xbd888af8	-0.06667131
13	0xbe0e9906	-0.13925561
14	0xbe25bdd9	-0.16185702
15	0xbdfb584b	-0.122727
16	0xbdcff407	-0.101539664
17	0xbd8dcc0b	-0.06923684
18	0xbdf600d2	-0.12011875
19	0xbdd89830	-0.105759025
20	0x3db20519	0.086923786
21	0xbd33149f	-0.043720838
22	0xbe068d5c	-0.13139862
23	0xbe0dacb7	-0.13835417
24	0x3bab2da6	0.0052239476
25	0xbe19a73a	-0.15005198
26	0xbd20f5ec	-0.03929703
27	0xbbb36eca	-0.0054758536
28	0xbc0ffdb7	-0.008788518
29	0xbddd3ee4	-0.10803011
30	0xbd6e2d78	-0.05814883
31	0xbdf96c9d	-0.121789195
32	0xbd152d91	-0.03642041
33	0xbe02b2eb	-0.12763564
34	0xbe0bc82f	-0.13650583
35	0xbdd47c82	-0.103753105
36	0xbde06d5e	-0.1095836
37	0xbdf989e0	-0.12184501
38	0xbc8b9d40	-0.017042756
39	0xbe193496	-0.14961466
40	0xbd879b90	-0.06621468
41	0xbe53f264	-0.20697933
42	0xbdc04129	-0.09387428
43	0xbda2e3e4	-0.07953623
44	0xbde8643e	-0.11347245
45	0xbc22aa58	-0.009928308
46	0xbdf0e835	-0.1176304
47	0xbd7919e3	-0.060815703
48	0xbd84c4ba	-0.06482835
49	0xbcbd4002	-0.02310181
50	0xbdbf0f03	-0.09329035
51	0xbe3d6bf5	-0.18498214
52	0xbdc65461	-0.09684063
53	0xbd8a9199	-0.06766052
54	0xbd94b438	-0.072609365
55	0xbe1eaed7	-0.15496384
56	0xbda57d77	-0.08080571
57	0xbb91395e	-0.0044318875
58	0xbdc4f2eb	-0.096166454
59	0xbe14b0a1	-0.14520504
60	0xbe08fb99	-0.13377227
61	0xbe0c2493	-0.13685827
62	0xbd8e8fe3	-0.06961038
63	0xbdcc71a6	-0.09982614

layer3.1.running_mean f4 [64]
0	0x3fdb6375	1.7139727
1	0xbce634a4	-0.028101273
2	0xbe479af5	-0.19492705
3	0xbf130349	-0.5742689
4	0x4036bf35	2.8554204
5	0x3f9568de	1.1672628
6	0x3ffb3c42	1.9627764
7	0xbe3d2295	-0.18470223
8	0x3f3444ae	0.70417297
9	0xbf1afbac	-0.6054027
10	0x3f911496	1.1334407
11	0xbff8653c	-1.9405894
12	0x3f621159	0.8830772
13	0x40773067	3.8623292
14	0xbf01474d	-0.5049942
15	0xbedbb36a	-0.4291032
16	0x3e886ed3	0.26647052
17	0x3fc2c6ec	1.5216956
18	0x3ef8e3ea	0.48611385
19	0x3d3c759f	0.04601061
20	0xbf7c57c3	-0.98571414
21	0x3f11e5ff	0.5699157
22	0x3f305481	0.6887894
23	0x3f9d3aab	1.2283529
24	0xc0752631	-3.830456
25	0xbd96e9e2	-0.07368828
26	0x3fb35fa7	1.4013566
27	0xbf02b022	-0.5105001
28	0xc0501cf8	-3.251768
29	0x3ecdc11f	0.40186402
30	0xbf9207cd	-1.1408631
31	0x3e181cee	0.14854786
32	0xbf8740ae	-1.0566614
33	0x3f99d8e4	1.2019315
34	0xbece5b8a	-0.40304214
35	0x3f5d472e	0.86436737
36	0x3e338e72	0.17534807
37	0x40156c4d	2.3347352
38	0x3ea694c3	0.3253537
39	0x40158659	2.336325
40	0x3f6aeedc	0.9177072
41	0x3ef21d30	0.47287893
42	0x401701ad	2.3594773
43	0xbfc1c1d2	-1.5137274
44	0x3f4e382a	0.8055445
45	0x3dd7a0cb	0.10528716
46	0x404291de	3.040153
47	0xbffcf49c	-1.9762149
48	0xbfed3cc5	-1.853417
49	0x3f38713a	0.7204777
50	0xbf9a6a54	-1.2063699
51	0x3febe754	1.8429971
52	0x3f3a1a13	0.72696036
53	0x3e4dab72	0.20084932
54	0xbf954b1f	-1.166355
55	0x3f2fc07e	0.68653095
56	0xbf72f2f0	-0.94901943
57	0xbf0b2f24	-0.54368806
58	0x3e6fd269	0.23420109
59	0x3f396f98	0.72435904
60	0x40548c39	3.3210585
61	0x3f277325	0.6541007
62	0xbfb09582	-1.3795626
63	0x403cf19d	2.952247

layer3.1.running_var f4 [64]
0	0x4046e8c1	3.1079562
1	0x403cb057	2.948263
2	0x40c491f0	6.1428146
3	0x40efe0e1	7.496201
4	0x40b76a39	5.7317166
5	0x40c5b620	6.178482
6	0x40c2f17b	6.0919776
7	0x409ff05a	4.99809
8	0x405088ee	3.2583575
9	0x41276739	10.462701
10	0x409a5996	4.823436
11	0x40ec7c3c	7.3901653
12	0x40666cf5	3.6004002
13	0x408ea51c	4.457655
14	0x3fffd0b9	1.9985572
15	0x40250962	2.5786977
16	0x40b5b146	5.67789
17	0x408dcb7c	4.4310894
18	0x404b4f60	3.1767197
19	0x40bbb17a	5.8654146
20	0x417e5bf3	15.897449
21	0x406c43c0	3.6916351
22	0x407ed9e7	3.9820497
23	0x40207668	2.507227
24	0x41070ba8	8.440346
25	0x40b133d3	5.537576
26	0x40b0384b	5.5068717
27	0x4115c772	9.361193
28	0x41247ee9	10.280984
29	0x4133cb00	11.237061
30	0x40fcd70f	7.9012523
31	0x40323347	2.7843797
32	0x413374cd	11.216016
33	0x40fe1108	7.939579
34	0x405bfe5e	3.4374003
35	0x40bc8be2	5.8920755
36	0x408105ba	4.031949
37	0x40bc2784	5.8798237
38	0x40d26851	6.575234
39	0x408e8575	4.453791
40	0x40318a9d	2.7740853
41	0x4094d351	4.6507955
42	0x40974fee	4.728507
43	0x408921f2	4.2853937
44	0x408e7585	4.4518456
45	0x408ca471	4.3950734
46	0x40a8bf89	5.2733808
47	0x40dd7c3d	6.921416
48	0x414de6ad	12.868817
49	0x40baf1d6	5.842021
50	0x4082eaf9	4.091183
51	0x407f1829	3.9858496
52	0x40333748	2.800249
53	0x4047a71f	3.1195753
54	0x40b9e100	5.808716
55	0x404f6b3d	3.2409203
56	0x410556bb	8.333674
57	0x410e4f8f	8.8944235
58	0x4086598b	4.1984305
59	0x408cd9a4	4.4015675
60	0x40d0f36f	6.529716
61	0x402a3779	2.6596358
62	0x40853ea8	4.1638985
63	0x40816283	4.0432754

fc1.weight f4 [10, 576]
0	0xbc2132c2	-0.009838762
1	0xbcd32f68	-0.025779441
2	0x3c997528	0.018732622
3	0x3cc33a8d	0.02383163
4	0x3db1d727	0.08683615
5	0x3d8d205b	0.06890937
6	0x3c1da2e8	0.009621359
7	0x3d41266f	0.047155794
8	0x3d4ce584	0.05002357
9	0x3d5cc0a9	0.053894673
10	0x3dcff0d4	0.10153356
11	0x3d7016fe	0.058615677
12	0x3cfd8cce	0.03095093
13	0x3dcdebf0	0.10054767
14	0x3d0394d0	0.03212434
15	0x3c80076f	0.015628545
16	0xbd7b87b8	-0.06140873
17	0xbdc417b3	-0.09574833
18	0xbd64317e	-0.055711262
19	0xbc837a91	-0.016049655
20	0xbba9727e	-0.0051711192
21	0xbd24de25	-0.040250916
22	0x3d6085fd	0.05481528
23	0xbd3152bd	-0.043291796
24	0xbd01b2eb	-0.03166477
25	0xbd12cb97	-0.03583869
26	0xbd47d2e6	-0.048785113
27	0xbd2aad49	-0.041669164
28	0x3d23649e	0.039890878
29	0x3cb200e0	0.021728933
30	0xbd8ab78b	-0.06773289
31	0x3c71e543	0.014764133
32	0xbb7892bf	-0.0037929264
33	0xbd8ec2a3	-0.06970718
34	0xbd921e37	-0.07134669
35	0xbc3f7514	-0.011685628
36	0xbb2f9d5b	-0.0026796672
37	0xbc1f84a3	-0.009736213
38	0x3be3408a	0.006935184
39	0x3caded07	0.021231188
40	0x3c136e79	0.008998507
41	0x3c37c2b2	0.011215853
42	0x3d835c0e	0.064140424
43	0x3cc94388	0.024568334
44	0x3de992a8	0.114049256
45	0xbdc5ac9b	-0.096520625
46	0xbc852d9e	-0.016257104
47	0xbca08073	-0.0195925
48	0xbd642258	-0.055696815
49	0x3dc1d6e9	0.09464819
50	0x3d893fe5	0.0670164
51	0xb95caa2e	-0.00021044232
52	0x3d6ea6aa	0.058264412
53	0x3cf9d948	0.030499116
54	0x3c01a1b6	0.00791209
55	0xbd4adf2b	-0.049529236
56	0x3b937ff8	0.004501339
57	0x3d04ef26	0.032454632
58	0xbdd5b5d0	-0.104350686
59	0xbd9e40c3	-0.07727196
60	0x3c881b4a	0.016614575
61	0x3c1c133c	0.00952607
62	0x3d3e0041	0.04638696
63	0xbde32711	-0.11091436
64	0xbd95b94d	-0.07310734
65	0xbd874eb2	-0.06606807
66	0xbd2872a7	-0.041124966
67	0xbd93d4fb	-0.07218357
68	0xbdf2237e	-0.11823176
69	0xbd5b5970	-0.05355209
70	0xbcaf8952	-0.021427784
71	0xbdc2c732	-0.0951065
72	0xbc02fd2e	-0.007994933
73	0x3ce00dec	0.027350388
74	0x3cfa48a8	0.030552223
75	0x3cbe46cd	0.02322712
76	0x3d610948	0.054940492
77	0x3d8fda37	0.07024043
78	0x3d3363f2	0.043796487
79	0x3d749450	0.059711754
80	0x3dfb4e01	0.122707374
81	0xbd19cb2e	-0.037547283
82	0xbde51551	-0.111857064
83	0xbdb33e30	-0.08752096
84	0xbda51650	-0.080608964
85	0xbd2acf8e	-0.041701846
86	0xbd48042a	-0.048832096
87	0xbd064b05	-0.032786388
88	0xbd3b1aa8	-0.04567972
89	0xbddbd261	-0.10733486
90	0xbaea6d3d	-0.0017885339
91	0x3d20ba49	0.039240155
92	0xbd0bb7dd	-0.034110893
93	0xbc09403a	-0.008377129
94	0x3da5ff8a	0.08105381
95	0xbc340e62	-0.010989757
96	0x3aad8f5b	0.0013241576
97	0x3be8b860	0.0071020573
98	0x3cad1c2b	0.021131596
99	0xbd55cd44	-0.05219771
100	0x3cadacee	0.021200623
101	0xbd18fb77	-0.03734919
102	0xbceee1ed	-0.029160464
103	0xbd609098	-0.054825395
104	0xbd31d66b	-0.043417376
105	0xbd85dd97	-0.065364055
106	0xbd20bc92	-0.039242335
107	0xbdc1ae8f	-0.094571225
108	0x3d903991	0.0704223
109	0x3ce1b6ca	0.02755298
110	0x3c4c8d18	0.012484811
111	0x3d5448a3	0.051827084
112	0x3d11ded0	0.03561288
113	0x3d7ef06a	0.062240995
114	0x3d9f18fc	0.07768437
115	0x3cc4e8b1	0.024036737
116	0xba7d69f0	-0.000966697
117	0xbd8a7413	-0.06760421
118	0x3b5e4046	0.0033912822
119	0xbd2c3a38	-0.04204771
120	0xbd1bfd89	-0.038083587
121	0x3d9229ca	0.07136877
122	0x3d0135fb	0.03154562
123	0x3ddd6389	0.108100004
124	0x3d7b187c	0.061302647
125	0x3e1e0089	0.15429892
126	0xbdada5cd	-0.084788896
127	0xbd6c50a6	-0.0576941
128	0x3be30d9d	0.006929113
129	0xbe01e9a7	-0.12686788
130	0x3d94f903	0.07274058
131	0x3c840117	0.0161138
132	0xbda912f3	-0.082555674
133	0xbd699c27	-0.057033684
134	0x3d31cc6f	0.043407854
135	0x3ae77d57	0.0017661256
136	0x3c63cb18	0.013903402
137	0x3cfd446c	0.030916415
138	0x3dca19e0	0.098682165
139	0x3d97d7fd	0.07414243
140	0x3ca0484b	0.019565722
141	0x3d17fd96	0.037107073
142	0xbb4b04b1	-0.0030978138
143	0xbdbc4681	-0.09193135
144	0xbdd67cff	-0.1047306
145	0x3c04e87a	0.008112067
146	0xbc20fe21	-0.009826214
147	0xbca302d0	-0.019898802
148	0x3dfcf154	0.12350717
149	0x3d87a620	0.06623483
150	0xbde66b23	-0.112509035
151	0xbdc2ff7c	-0.09521386
152	0xbd7df908	-0.062005073
153	0xbdd74d4c	-0.1051279
154	0xbd44144c	-0.04787092
155	0xbdb5e672	-0.088818446
156	0x3bf57efa	0.0074919434
157	0x3d56d0a3	0.052445065
158	0x3d18eec0	0.037337065
159	0x3cc2e1ff	0.023789404
160	0xbce35884	-0.027752168
161	0x3d54273d	0.051795233
162	0xbdb00a6e	-0.08595739
163	0x3d08ade1	0.03336895
164	0x3da0ac0a	0.07845314
165	0xbd680789	-0.05664781
166	0x3da871da	0.082248405
167	0x3d56a30a	0.05240158
168	0xbd83aa9e	-0.06429027
169	0xbd815dd5	-0.06316725
170	0xbc95eaf4	-0.018300511
171	0xbd86df5b	-0.065855704
172	0xbd2196b6	-0.03945037
173	0xbc15a8c8	-0.009134479
174	0x3c76084c	0.015016627
175	0x3d84d987	0.064868025
176	0x3d8fada1	0.07015539
177	0xbce6145f	-0.028085886
178	0x3d46cd15	0.048535425
179	0x3cf1cc70	0.029516429
180	0xbd8852d1	-0.06656421
181	0xbdb9d24f	-0.09073316
182	0xbd9ba697	-0.07600134
183	0xbd78018e	-0.060548358
184	0xbdbea6ef	-0.09309184
185	0xbdcd2063	-0.10015943
186	0xbd0c6c83	-0.034283172
187	0xbcbab125	-0.022789547
188	0xbdbc75ba	-0.09202142
189	0xbd92dd6e	-0.071711406
190	0xbd534086	-0.051575206
191	0xbcacaa9c	-0.021077447
192	0x3cf29aaa	0.029614765
193	0x3d58748c	0.052845523
194	0x3cd45323	0.025918549
195	0x39c011c0	0.00036634319
196	0xbdb588e8	-0.088640034
197	0x3d0e1c7b	0.03469513
198	0xbd600f62	-0.05470217
199	0x3d092aa8	0.033487946
200	0x3dfda8f3	0.1238574
201	0xbd0cc935	-0.034371573
202	0x3d2d303a	0.04228232
203	0x3d87e886	0.06636147
204	0xbe3a26ff	-0.18178938
205	0xbdabf18e	-0.08395682
206	0xbc87ac6c	-0.01656171
207	0xbc2e1ef9	-0.010627502
208	0x3cd3d23d	0.025857085
209	0x3c8028c2	0.015644435
210	0x3d62429a	0.055239297
211	0x3daf772c	0.08567652
212	0x3d6dda45	0.058069486
213	0x3c575f88	0.013145335
214	0xbd1d321e	-0.038377874
215	0xbd8c1df9	-0.06841654
216	0x3d0dd72e	0.03462904
217	0x3cc30ef8	0.023810849
218	0x3d927946	0.07152037
219	0x3d0bd283	0.034136306
220	0xbdc5eff7	-0.0966491
221	0x3c0d3529	0.008618631
222	0x3c1745d3	0.009232956
223	0x3cd69cb0	0.026197761
224	0x3c8a7b17	0.016904397
225	0x3d19f94a	0.037591256
226	0xbd8702d1	-0.06592334
227	0xbd741b6c	-0.059596464
228	0xbca0185b	-0.019542864
229	0xbdbf95bd	-0.09354732
230	0xbd5d50b6	-0.05403205
231	0x3d75441c	0.059879407
232	0x3d76004b	0.060058873
233	0x3cd6f63b	0.026240459
234	0xbdcad9a8	-0.09904796
235	0xbae09424	-0.0017133993
236	0xbd448b70	-0.04798454
237	0x3b4747a6	0.0030407696
238	0x3db7a808	0.08967596
239	0xbd097d49	-0.033566747
240	0xbd27909a	-0.040909387
241	0xbc864e4b	-0.016394755
242	0xbd1bf868	-0.038078696
243	0xbd865b37	-0.065603666
244	0xbdc5f0c4	-0.09665063
245	0xbdf9cdbe	-0.12197445
246	0xbcf231ef	-0.029564826
247	0xbc5ac35a	-0.0133522395
248	0xbd924499	-0.0714199
249	0x3bd47309	0.00648344
250	0xbd7e0b4d	-0.062022496
251	0xbc647ee7	-0.0139462715
252	0x3d56add6	0.052411877
253	0xbc3f4091	-0.011673109
254	0x3cf025d9	0.029314922
255	0xbd15064e	-0.036382966

fc1.bias f4 [10]
0	0xbdb9d468	-0.090737164
1	0xbd9fc5fc	-0.078014344
2	0x3e147e6f	0.14501356
3	0xbc5d5ad5	-0.013510426
4	0xbca968a5	-0.020679781
5	0x3db04472	0.08606805
6	0xbd642342	-0.055697687
7	0x3c24b686	0.010053283
8	0x3d5d2eed	0.05399983
9	0x3dc41665	0.09574584

fc2.weight f4 [2, 10]
0	0x3e8e7441	0.2782307
1	0x3e5eb07e	0.21747014
2	0xbed8f38e	-0.42373317
3	0x3eb08735	0.34478155
4	0x3d38384e	0.04497557
5	0xbed57b78	-0.41695762
6	0x3dc2ee4e	0.09518109
7	0x3e920479	0.28519037
8	0x3eff9061	0.4991484
9	0xbe7bad79	-0.24577893
10	0xbe5a929e	-0.21344993
11	0xbea5992a	-0.32343417
12	0xbd12e820	-0.035865903
13	0xbe0902ba	-0.13379946
14	0xbe9fb3be	-0.3119182
15	0x3e017e04	0.12645727
16	0xbd5d6083	-0.05404712
17	0xbe68d5b3	-0.2273777
18	0xbe188d4e	-0.14897653
19	0xbcf5046a	-0.029909331

fc2.bias f4 [2]
0	0xbe7ad129	-0.24493851
1	0xbe4b8484	-0.1987477
